Epoch 00069: early stopping
train rmse = 1.1150, test rmse = 1.1618
Model: "sequential"
_________________________________________________________________
Layer (type)                 Output Shape              Param #   
=================================================================
dense (Dense)                (None, 512)               11776     
_________________________________________________________________
dense_1 (Dense)              (None, 256)               131328    
_________________________________________________________________
dense_2 (Dense)              (None, 64)                16448     
_________________________________________________________________
dense_3 (Dense)              (None, 16)                1040      
_________________________________________________________________
dense_4 (Dense)              (None, 2)                 34        
=================================================================
Total params: 160,626
Trainable params: 160,626
Non-trainable params: 0
_________________________________________________________________
None
saved!
rmse dl = 2.2321
rmse crlb = 0.5128
rmse nr-ls = 3.9234
rmse nr-ss = 2.7246
rmse nrna-ls = 1.1590
rmse nrna-wls = 1.1321
rmse nr1a-ls = 9.4680
rmse nr1a-ss = 2.2741
rmse nr1a-minls = 2.6328
